…
 history_max        | 20        
 l2                 | 0         
 lr                 | 0.001     
 main_metric        |           
 num_neg            | 1         
 num_workers        | 0         
 optimizer          | Adam      
 random_seed        | 0         
 save_final_results | 1         
 test_all           | 0         
 topk               | 5,10,20,50
=================================
INFO:root:Device: cuda
INFO:root:Load corpus from ..\data\MovieLens_1M\ML_1MTOPK\DcrecReader.pkl
INFO:root:#params: 315904
INFO:root:Dcrec(
  (emb_layer): TransformerEmbedding(
    (token_emb): Embedding(3127, 64, padding_idx=0)
    (position_emb): Embedding(50, 64)
    (dropout): Dropout(p=0.1, inplace=False)
  )
  (transformer_layers): ModuleList(
    (0): TransformerLayer(
      (attention): MultiHeadAttention(
        (linear_layers): ModuleList(
          (0): Linear(in_features=64, out_features=64, bias=True)
          (1): Linear(in_features=64, out_features=64, bias=True)
          (2): Linear(in_features=64, out_features=64, bias=True)
        )
        (output_linear): Linear(in_features=64, out_features=64, bias=True)
        (dropout): Dropout(p=0.1, inplace=False)
      )
      (feed_forward): PositionwiseFeedForward(
        (w_1): Linear(in_features=64, out_features=256, bias=True)
        (w_2): Linear(in_features=256, out_features=64, bias=True)
        (dropout): Dropout(p=0.1, inplace=False)
        (activation): GELU(approximate=none)
      )
      (input_sublayer): ResidualConnection(
        (norm): LayerNorm((64,), eps=1e-05, elementwise_affine=True)
        (dropout): Dropout(p=0.1, inplace=False)
      )
      (output_sublayer): ResidualConnection(
        (norm): LayerNorm((64,), eps=1e-05, elementwise_affine=True)
        (dropout): Dropout(p=0.1, inplace=False)
      )
      (dropout): Dropout(p=0.1, inplace=False)
    )
    (1): TransformerLayer(
      (attention): MultiHeadAttention(
        (linear_layers): ModuleList(
          (0): Linear(in_features=64, out_features=64, bias=True)
          (1): Linear(in_features=64, out_features=64, bias=True)
          (2): Linear(in_features=64, out_features=64, bias=True)
        )
        (output_linear): Linear(in_features=64, out_features=64, bias=True)
        (dropout): Dropout(p=0.1, inplace=False)
      )
      (feed_forward): PositionwiseFeedForward(
        (w_1): Linear(in_features=64, out_features=256, bias=True)
        (w_2): Linear(in_features=256, out_features=64, bias=True)
        (dropout): Dropout(p=0.1, inplace=False)
        (activation): GELU(approximate=none)
      )
      (input_sublayer): ResidualConnection(
        (norm): LayerNorm((64,), eps=1e-05, elementwise_affine=True)
        (dropout): Dropout(p=0.1, inplace=False)
      )
      (output_sublayer): ResidualConnection(
        (norm): LayerNorm((64,), eps=1e-05, elementwise_affine=True)
        (dropout): Dropout(p=0.1, inplace=False)
      )
      (dropout): Dropout(p=0.1, inplace=False)
    )
  )
  (loss_fct): CrossEntropyLoss()
  (dropout): Dropout(p=0.1, inplace=False)
  (layernorm): LayerNorm((64,), eps=1e-12, elementwise_affine=True)
  (contrastive_learning_layer): CLLayer(
    (fc1): Linear(in_features=64, out_features=64, bias=True)
    (fc2): Linear(in_features=64, out_features=64, bias=True)
  )
  (gcn): GCN(
    (layer): GraphConv(in=64, out=64, normalization=both, activation=None)
    (act): GELU(approximate=none)
  )
)
INFO:root:Test Before Training: (HR@5:0.0494,NDCG@5:0.0287,HR@10:0.0988,NDCG@10:0.0444,HR@20:0.1976,NDCG@20:0.0690,HR@50:0.5021,NDCG@50:0.1285)
INFO:root:Optimizer: Adam
INFO:root: test=(HR@5:0.4687,NDCG@5:0.3416,HR@10:0.5898,NDCG@10:0.3807,HR@20:0.7119,NDCG@20:0.4116,HR@50:0.8584,NDCG@50:0.4408) [0.2 s]
…
